…
To enable the following instructions: AVX2 AVX512F AVX512_VNNI AVX512_BF16 FMA, in other operations, rebuild TensorFlow with the appropriate compiler flags.
2024-11-21 08:26:53.827578: W tensorflow/compiler/tf2tensorrt/utils/py_utils.cc:38] TF-TRT Warning: Could not find TensorRT
Model: "model"
_________________________________________________________________
 Layer (type)                Output Shape              Param #   
=================================================================
 input_1 (InputLayer)        [(None, 2)]               0         
                                                                 
 dense (Dense)               (None, 20)                60        
                                                                 
 dense_1 (Dense)             (None, 20)                420       
                                                                 
 dense_2 (Dense)             (None, 20)                420       
                                                                 
 dense_3 (Dense)             (None, 20)                420       
                                                                 
 dense_4 (Dense)             (None, 20)                420       
                                                                 
 dense_5 (Dense)             (None, 20)                420       
                                                                 
 dense_6 (Dense)             (None, 20)                420       
                                                                 
 dense_7 (Dense)             (None, 20)                420       
                                                                 
 dense_8 (Dense)             (None, 3)                 63        
                                                                 
=================================================================
Total params: 3,063
Trainable params: 3,063
Non-trainable params: 0
_________________________________________________________________
epoch: 0
/scratch/yuningw/anaconda3/envs/tensor2/lib/python3.8/site-packages/scipy/__init__.py:138: UserWarning: A NumPy version >=1.16.5 and <1.23.0 is required for this version of SciPy (detected version 1.23.5)
…
